…
        "model.add(Dense(101, kernel_regularizer=l2(2e-4), activation='softmax'))\n",
        "\n",
        "# Summary\n",
        "model.summary()"
      ],
      "execution_count": 8,
      "outputs": [
        {
          "output_type": "stream",
          "text": [
            "Model: \"sequential\"\n",
            "_________________________________________________________________\n",
            "Layer (type)                 Output Shape              Param #   \n",
            "=================================================================\n",
            "conv2d (Conv2D)              (None, 64, 64, 32)        896       \n",
            "_________________________________________________________________\n",
            "batch_normalization (BatchNo (None, 64, 64, 32)        128       \n",
            "_________________________________________________________________\n",
            "activation (Activation)      (None, 64, 64, 32)        0         \n",
            "_________________________________________________________________\n",
            "conv2d_1 (Conv2D)            (None, 64, 64, 32)        9248      \n",
            "_________________________________________________________________\n",
            "conv2d_2 (Conv2D)            (None, 64, 64, 32)        1056      \n",
            "_________________________________________________________________\n",
            "batch_normalization_1 (Batch (None, 64, 64, 32)        128       \n",
            "_________________________________________________________________\n",
            "activation_1 (Activation)    (None, 64, 64, 32)        0         \n",
            "_________________________________________________________________\n",
            "max_pooling2d (MaxPooling2D) (None, 32, 32, 32)        0         \n",
            "_________________________________________________________________\n",
            "dropout (Dropout)            (None, 32, 32, 32)        0         \n",
            "_________________________________________________________________\n",
            "conv2d_3 (Conv2D)            (None, 32, 32, 64)        18496     \n",
            "_________________________________________________________________\n",
            "batch_normalization_2 (Batch (None, 32, 32, 64)        256       \n",
            "_________________________________________________________________\n",
            "activation_2 (Activation)    (None, 32, 32, 64)        0         \n",
            "_________________________________________________________________\n",
            "conv2d_4 (Conv2D)            (None, 32, 32, 64)        36928     \n",
            "_________________________________________________________________\n",
            "conv2d_5 (Conv2D)            (None, 32, 32, 64)        4160      \n",
            "_________________________________________________________________\n",
            "batch_normalization_3 (Batch (None, 32, 32, 64)        256       \n",
            "_________________________________________________________________\n",
            "activation_3 (Activation)    (None, 32, 32, 64)        0         \n",
            "_________________________________________________________________\n",
            "max_pooling2d_1 (MaxPooling2 (None, 16, 16, 64)        0         \n",
            "_________________________________________________________________\n",
            "dropout_1 (Dropout)          (None, 16, 16, 64)        0         \n",
            "_________________________________________________________________\n",
            "conv2d_6 (Conv2D)            (None, 16, 16, 128)       73856     \n",
            "_________________________________________________________________\n",
            "batch_normalization_4 (Batch (None, 16, 16, 128)       512       \n",
            "_________________________________________________________________\n",
            "activation_4 (Activation)    (None, 16, 16, 128)       0         \n",
            "_________________________________________________________________\n",
            "conv2d_7 (Conv2D)            (None, 16, 16, 128)       147584    \n",
            "_________________________________________________________________\n",
            "conv2d_8 (Conv2D)            (None, 16, 16, 128)       16512     \n",
            "_________________________________________________________________\n",
            "batch_normalization_5 (Batch (None, 16, 16, 128)       512       \n",
            "_________________________________________________________________\n",
            "activation_5 (Activation)    (None, 16, 16, 128)       0         \n",
            "_________________________________________________________________\n",
            "max_pooling2d_2 (MaxPooling2 (None, 8, 8, 128)         0         \n",
            "_________________________________________________________________\n",
            "dropout_2 (Dropout)          (None, 8, 8, 128)         0         \n",
            "_________________________________________________________________\n",
            "conv2d_9 (Conv2D)            (None, 8, 8, 256)         295168    \n",
            "_________________________________________________________________\n",
            "batch_normalization_6 (Batch (None, 8, 8, 256)         1024      \n",
            "_________________________________________________________________\n",
            "activation_6 (Activation)    (None, 8, 8, 256)         0         \n",
            "_________________________________________________________________\n",
            "conv2d_10 (Conv2D)           (None, 8, 8, 256)         590080    \n",
            "_________________________________________________________________\n",
            "conv2d_11 (Conv2D)           (None, 8, 8, 256)         65792     \n",
            "_________________________________________________________________\n",
            "batch_normalization_7 (Batch (None, 8, 8, 256)         1024      \n",
            "_________________________________________________________________\n",
            "activation_7 (Activation)    (None, 8, 8, 256)         0         \n",
            "_________________________________________________________________\n",
            "max_pooling2d_3 (MaxPooling2 (None, 4, 4, 256)         0         \n",
            "_________________________________________________________________\n",
            "dropout_3 (Dropout)          (None, 4, 4, 256)         0         \n",
            "_________________________________________________________________\n",
            "conv2d_12 (Conv2D)           (None, 4, 4, 512)         1180160   \n",
            "_________________________________________________________________\n",
            "batch_normalization_8 (Batch (None, 4, 4, 512)         2048      \n",
            "_________________________________________________________________\n",
            "activation_8 (Activation)    (None, 4, 4, 512)         0         \n",
            "_________________________________________________________________\n",
            "conv2d_13 (Conv2D)           (None, 4, 4, 512)         2359808   \n",
            "_________________________________________________________________\n",
            "conv2d_14 (Conv2D)           (None, 4, 4, 512)         262656    \n",
            "_________________________________________________________________\n",
            "batch_normalization_9 (Batch (None, 4, 4, 512)         2048      \n",
            "_________________________________________________________________\n",
            "activation_9 (Activation)    (None, 4, 4, 512)         0         \n",
            "_________________________________________________________________\n",
            "max_pooling2d_4 (MaxPooling2 (None, 2, 2, 512)         0         \n",
            "_________________________________________________________________\n",
            "dropout_4 (Dropout)          (None, 2, 2, 512)         0         \n",
            "_________________________________________________________________\n",
            "conv2d_15 (Conv2D)           (None, 2, 2, 1024)        4719616   \n",
            "_________________________________________________________________\n",
            "batch_normalization_10 (Batc (None, 2, 2, 1024)        4096      \n",
            "_________________________________________________________________\n",
            "activation_10 (Activation)   (None, 2, 2, 1024)        0         \n",
            "_________________________________________________________________\n",
            "conv2d_16 (Conv2D)           (None, 2, 2, 1024)        1049600   \n",
            "_________________________________________________________________\n",
            "batch_normalization_11 (Batc (None, 2, 2, 1024)        4096      \n",
            "_________________________________________________________________\n",
            "activation_11 (Activation)   (None, 2, 2, 1024)        0         \n",
            "_________________________________________________________________\n",
            "max_pooling2d_5 (MaxPooling2 (None, 1, 1, 1024)        0         \n",
            "_________________________________________________________________\n",
            "dropout_5 (Dropout)          (None, 1, 1, 1024)        0         \n",
            "_________________________________________________________________\n",
            "flatten (Flatten)            (None, 1024)              0         \n",
            "_________________________________________________________________\n",
            "dense (Dense)                (None, 1024)              1049600   \n",
            "_________________________________________________________________\n",
            "batch_normalization_12 (Batc (None, 1024)              4096      \n",
            "_________________________________________________________________\n",
            "activation_12 (Activation)   (None, 1024)              0         \n",
            "_________________________________________________________________\n",
            "dropout_6 (Dropout)          (None, 1024)              0         \n",
            "_________________________________________________________________\n",
            "dense_1 (Dense)              (None, 854)               875350    \n",
            "_________________________________________________________________\n",
            "batch_normalization_13 (Batc (None, 854)               3416      \n",
            "_________________________________________________________________\n",
            "activation_13 (Activation)   (None, 854)               0         \n",
            "_________________________________________________________________\n",
            "dropout_7 (Dropout)          (None, 854)               0         \n",
            "_________________________________________________________________\n",
            "dense_2 (Dense)              (None, 101)               86355     \n",
            "=================================================================\n",
            "Total params: 12,866,561\n",
            "Trainable params: 12,854,741\n",
            "Non-trainable params: 11,820\n",
            "_________________________________________________________________\n"
          ],
          "name": "stdout"
        }
      ]
    },
    {
      "cell_type": "code",
…
